Models/best_model.pth (torch, 4514 bytes, 9 tensors)

conv1.bias f4 [8]
00000000: 9806 03be e593 0a3e a80c c83c aa2d 783c
00000010: 8f07 823d fdc7 babd d731 bb3c fa43 993d
-0.12795484 0.1353298 0.024420097 0.015147606 0.06349098 -0.09120176 0.022850914 0.074836686

conv1.lin.weight f4 [8, 5]
00000000: a6be 5c3d b664 9cbe a87b be3e 1d5e 003f
00000010: 574e 893e 7733 d6be fdb7 733e 17fe 713e
00000020: 5338 443e 657a 10bf 4073 32bf 4225 8fbe
00000030: ad08 02bf 520a 0a3f e535 343e 9f2f a23e
00000040: 37c9 843e 0e23 733c 9cbc 013f 01b4 d7be
00000050: 6288 463c fd17 04bf 1880 3e3e 4b7f 59be
00000060: 8c65 2d3e 3ee2 6ebe da43 f13e 0169 fcbe
00000070: 30b0 9bbe 22bc fdbe 6588 213f 7167 763e
00000080: ff88 273f 9f1e 08bf 5462 26bf f37e f5be
00000090: e823 0bbf 7770 a93e 6a75 3e3e 79a9 193f
0.053892754 -0.30545586 0.37203717 0.50143605 0.2681758 -0.4183614 0.23800655 0.23632084
0.19162111 -0.5643676 -0.6970711 -0.27958113 -0.5079449 0.53922 0.17598684 0.31676957
0.25934765 0.014839901 0.5067842 -0.4212952 0.012117477 -0.51599103 0.18603551 -0.21239965
0.16933268 -0.23328492 0.4712208 -0.49298862 -0.30407858 -0.49557596 0.63098747 0.24062897
0.65443414 -0.53171724 -0.64993787 -0.47948417 -0.54351664 0.33093616 0.18599477 0.6002422

conv2.bias f4 [8]
00000000: 91ec b13c 314f 723b e98b 08bd 1723 05be
00000010: 2b9d cdbc 4696 55bc c81e 60bd 76c7 13bc
0.021719249 0.0036973471 -0.033336554 -0.13001667 -0.025099358 -0.013036316 -0.054716855 -0.009019723

conv2.lin.weight f4 [8, 8]
00000000: 72c3 643d a0ea 03be 3a06 983d 2bf8 2a3f
00000010: cc4b 003f b230 1fbf c9f6 b33e 3b60 ddbe
00000020: 2a7b ff3c 68a9 f4be c849 063f a883 2fbf
00000030: 8725 043f fabf c73d 40a6 883e f269 ccbd
00000040: f5e6 2d3f fdec 3e3d f83f 89bb 4f76 3cbf
00000050: f933 e93e 549a 6cbe db28 31be 4401 363f
00000060: 80bd b83b 26df 26be 98e4 15be 0d8a 5dbe
00000070: b041 cc3e 7b3b 0fbd d57b fdbe 7cf3 85bc
00000080: 7222 0abf c546 c23e 3b18 263f 8031 37bf
00000090: 96f7 303e fa77 bf3e 3c62 61bc ae81 a8bd
000000a0: 2101 763e 2b51 dd3e f67f b53e 26f1 86be
000000b0: aba1 bcbd 9651 d53d c7c2 48be 9340 1ebc
000000c0: 0b1b 493e c303 3a3f 36d3 3b3e 83f5 cfbd
000000d0: 4e9d ddbd a32d 1e3e d629 a0bd 8cd2 013e
000000e0: d4fd 05bf dacc 9cbe f121 d93e 1be1 e53e
000000f0: b50d 44be 1ef1 a5be d3e8 a2be 7c2b 42bf
0.055850454 -0.12882471 0.074230626 0.66784924 0.50115657 -0.6218368 0.3514922 -0.4323748
0.031186659 -0.47785497 0.5245633 -0.68560266 0.5161976 0.097534135 0.2668934 -0.09981145
0.6793054 0.04661273 -0.004188534 -0.73618025 0.45547464 -0.23105747 -0.17300741 0.7109568
0.0056378245 -0.16296062 -0.14637983 -0.21634693 0.39893866 -0.034968834 -0.4950854 -0.016351454
-0.5395881 0.37944618 0.6488072 -0.71559906 0.17281947 0.37396222 -0.013756331 -0.082278594
0.24023868 0.4322599 0.3544919 -0.26355857 -0.09210523 0.10415952 -0.19605552 -0.00965895
0.19639222 0.7266199 0.1834229 -0.101542495 -0.10821019 0.15447097 -0.078204796 0.12677974
-0.52340436 -0.3062504 0.42408708 0.44898304 -0.19145854 -0.3241052 -0.31818256 -0.758476

batch_norm.weight f4 [8]
00000000: b436 883f 0b5f 8e3f 6f57 7a3f 8bd3 a13f
00000010: 0a99 963f 406d 8f3f 10d9 813f 2c42 9c3f
1.0641694 1.1122755 0.97789663 1.2642683 1.1765454 1.1205215 1.0144367 1.2207694

batch_norm.bias f4 [8]
00000000: d619 0bbd fc56 ad3c 8c00 8cb9 04b0 873d
00000010: 40ee 2ebd 7774 9a3c 8d6c 9f3d df43 a03b
-0.033960186 0.021159641 -0.00026703288 0.06625369 -0.04270768 0.018854363 0.07784376 0.0048909034

batch_norm.running_mean f4 [8]
00000000: f027 803d d125 263e e5fb aa3e 7707 6d3d
00000010: 41c1 4b3e badf 1b3e d1e6 9d3e b099 203e
0.062576175 0.16225363 0.33395305 0.057868447 0.1989794 0.15222064 0.3084016 0.15683627

batch_norm.running_var f4 [8]
00000000: 6361 273d 1f7c 813d c0d0 543e 16d6 033d
00000010: 32df af3d ad52 f53d c5c2 783e eb0d 7e3d
0.04086436 0.06322502 0.20782757 0.03218659 0.08587493 0.1197866 0.24293049 0.062024992

fc.weight f4 [1, 8]
00000000: 18bd babe 76b0 a43e d6da e23e 484c 443d
00000010: 343c 04bf 0645 97be 9b4a 41be f5ec ee3e
-0.36472392 0.3216588 0.44307584 0.04792431 -0.5165436 -0.29544848 -0.18876116 0.4666516
